…
 identical (initializing a BertForSequenceClassification model from a BertForSequenceClassification model).\n","Some weights of BertForSequenceClassification were not initialized from the model checkpoint at bert-base-multilingual-cased and are newly initialized: ['classifier.weight', 'classifier.bias']\n","You should probably TRAIN this model on a down-stream task to be able to use it for predictions and inference.\n"]},{"output_type":"execute_result","data":{"text/plain":["BertForSequenceClassification(\n","  (bert): BertModel(\n","    (embeddings): BertEmbeddings(\n","      (word_embeddings): Embedding(119547, 768, padding_idx=0)\n","      (position_embeddings): Embedding(512, 768)\n","      (token_type_embeddings): Embedding(2, 768)\n","      (LayerNorm): LayerNorm((768,), eps=1e-12, elementwise_affine=True)\n","      (dropout): Dropout(p=0.1, inplace=False)\n","    )\n","    (encoder): BertEncoder(\n","      (layer): ModuleList(\n","        (0-11): 12 x BertLayer(\n","          (attention): BertAttention(\n","            (self): BertSelfAttention(\n","              (query): Linear(in_features=768, out_features=768, bias=True)\n","              (key): Linear(in_features=768, out_features=768, bias=True)\n","              (value): Linear(in_features=768, out_features=768, bias=True)\n","              (dropout): Dropout(p=0.1, inplace=False)\n","            )\n","            (output): BertSelfOutput(\n","              (dense): Linear(in_features=768, out_features=768, bias=True)\n","              (LayerNorm): LayerNorm((768,), eps=1e-12, elementwise_affine=True)\n","              (dropout): Dropout(p=0.1, inplace=False)\n","            )\n","          )\n","          (intermediate): BertIntermediate(\n","            (dense): Linear(in_features=768, out_features=3072, bias=True)\n","            (intermediate_act_fn): GELUActivation()\n","          )\n","          (output): BertOutput(\n","            (dense): Linear(in_features=3072, out_features=768, bias=True)\n","            (LayerNorm): LayerNorm((768,), eps=1e-12, elementwise_affine=True)\n","            (dropout): Dropout(p=0.1, inplace=False)\n","          )\n","        )\n","      )\n","    )\n","    (pooler): BertPooler(\n","      (dense): Linear(in_features=768, out_features=768, bias=True)\n","      (activation): Tanh()\n","    )\n","  )\n","  (dropout): Dropout(p=0.1, inplace=False)\n","  (classifier): Linear(in_features=768, out_features=2, bias=True)\n",")"]},"metadata":{},"execution_count":92}],"source":["#모델 생성\n","\n","#BERT 분류 모델 생성\n","model = BertForSequenceClassification.from_pretrained('bert-base-multilingual-cased', num_labels=2)\n","\n","#모델 확인\n","model.cuda()"]},{"cell_type":"code","execution_count":null,"metadata":{"id":"PkQv7RTTDkSh"},"outputs":[],"source":["#옵티마이저 설정 등"]},{"cell_type":
…
